Generating data...
Total addition questions: 50000
Vectorization...
Training Data:
(45000, 7, 12)
(45000, 4, 12)
Validation Data:
(5000, 7, 12)
(5000, 4, 12)
Build model...
_________________________________________________________________
Layer (type)                 Output Shape              Param #   
=================================================================
lstm_1 (LSTM)                (None, 128)               72192     
_________________________________________________________________
repeat_vector_1 (RepeatVecto (None, 4, 128)            0         
_________________________________________________________________
lstm_2 (LSTM)                (None, 4, 128)            131584    
_________________________________________________________________
time_distributed_1 (TimeDist (None, 4, 12)             1548      
_________________________________________________________________
activation_1 (Activation)    (None, 4, 12)             0         
=================================================================
Total params: 205,324
Trainable params: 205,324
Non-trainable params: 0
_________________________________________________________________

--------------------------------------------------
Iteration 1
Train on 45000 samples, validate on 5000 samples
Epoch 1/1

  128/45000 [..............................] - ETA: 4:36:35 - loss: 2.4846 - acc: 0.0820
…
